…
Epoch 187/192 | Train Loss: 3.122470 | Val Loss: 2.832252
Epoch 188/192 | Train Loss: 3.115467 | Val Loss: 2.825499
Epoch 189/192 | Train Loss: 3.107946 | Val Loss: 2.818775
Epoch 190/192 | Train Loss: 3.100511 | Val Loss: 2.812015
Epoch 191/192 | Train Loss: 3.091863 | Val Loss: 2.805271
Epoch 192/192 | Train Loss: 3.089408 | Val Loss: 2.798491
Test MRE: 0.4818193018436432

--- Model Summary using torchsummary ---
----------------------------------------------------------------
        Layer (type)               Output Shape         Param #
================================================================
            Linear-1                  [-1, 307]           3,070
           Sigmoid-2                  [-1, 307]               0
           Sigmoid-3                  [-1, 307]               0
            Linear-4                  [-1, 153]          47,124
           Sigmoid-5                  [-1, 153]               0
           Sigmoid-6                  [-1, 153]               0
            Linear-7                 [-1, 1414]         217,756
            Linear-8                 [-1, 1414]         217,756
            Linear-9                  [-1, 153]         217,872
          Sigmoid-10                  [-1, 153]               0
          Sigmoid-11                  [-1, 153]               0
           Linear-12                  [-1, 307]          47,278
          Sigmoid-13                  [-1, 307]               0
          Sigmoid-14                  [-1, 307]               0
           Linear-15                    [-1, 9]           2,772
================================================================
Total params: 753,628
Trainable params: 753,628
Non-trainable params: 0
----------------------------------------------------------------
Input size (MB): 0.00
Forward/backward pass size (MB): 0.04
Params size (MB): 2.87
Estimated Total Size (MB): 2.92
----------------------------------------------------------------

--- Model Summary using torchinfo ---
==========================================================================================
Layer (type:depth-idx)                   Output Shape              Param #
==========================================================================================
CVAE                                     [1, 9]                    --
├─Sequential: 1-1                        [1, 153]                  47,124
│    └─Linear: 2-1                       [1, 307]                  3,070
├─Sequential: 1-4                        --                        (recursive)
│    └─Sigmoid: 2-2                      [1, 307]                  --
├─Sequential: 1-3                        --                        (recursive)
│    └─Linear: 2-3                       [1, 153]                  47,124
├─Sequential: 1-4                        --                        (recursive)
│    └─Sigmoid: 2-4                      [1, 153]                  --
├─Linear: 1-5                            [1, 1414]                 217,756
├─Linear: 1-6                            [1, 1414]                 217,756
├─Sequential: 1-7                        [1, 9]                    --
│    └─Linear: 2-5                       [1, 153]                  217,872
│    └─Sigmoid: 2-6                      [1, 153]                  --
│    └─Linear: 2-7                       [1, 307]                  47,278
│    └─Sigmoid: 2-8                      [1, 307]                  --
│    └─Linear: 2-9                       [1, 9]                    2,772
==========================================================================================
Total params: 800,752
Trainable params: 800,752
Non-trainable params: 0
Total mult-adds (M): 0.75
==========================================================================================
Input size (MB): 0.00
Forward/backward pass size (MB): 0.03
Params size (MB): 3.01
Estimated Total Size (MB): 3.04
====
…
